develop_model_for_calibrated_data/model.tflite (tflite, 4456 bytes, 5 tensors)

arith.constant f4 [1, 15]
000000 3e 52 54 3e c9 4e 76 3e fe 8b 40 39 3c 0b 3f 3e
       0.20734498 0.24053492 0.00018362698 0.1865663
000010 5e 9e be be 88 ce 73 be 5b f0 11 3f 12 6d b4 bd
       -0.372302 -0.23809254 0.5700738 -0.08809866
000020 63 67 6a 3d 40 85 25 3d 72 cc d8 be 1c c7 22 bb
       0.057227504 0.04041028 -0.4234348 -0.0024837917
000030 48 56 73 3e 3e 29 51 be a4 7d cc 3e
       0.23763382 -0.20425889 0.39939606

arith.constant1 f4 [15, 30]
000000 88 a0 1a be 50 0c c7 3e 41 b7 51 3e 8d 8a c8 bd
       -0.151003 0.3887658 0.20480062 -0.097920515
000010 bc fc b1 3e 80 67 50 3e db 8c 80 bf 13 bd 66 be
       0.34763134 0.20351982 -1.0042986 -0.22533064
000020 81 7c 98 be 45 6b a8 bd c8 e2 b1 3e 4e 47 6d 3c
       -0.2978249 -0.08223585 0.34743333 0.014482332
000030 84 99 b0 bd 66 eb 3b bf 88 24 a2 3d 60 1d 49 bd
       -0.08623031 -0.73406065 0.07917124 -0.04910028
000040 3b cd 69 be 14 27 d0 3f 5d ab 93 3e c5 b6 b9 bc
       -0.22832195 1.6261926 0.28841677 -0.02267016
000050 fb 92 b3 be 3e b7 15 3e 10 8a 9d bc 0e 5b 58 bf
       -0.35073075 0.14620683 -0.019230872 -0.8451394
000060 79 bd c8 3c 31 81 7a bf b4 49 70 3e 99 70 ac be
       0.02450441 -0.9785338 0.23465616 -0.33679655
000070 72 9e b7 3e 26 6e 18 bd 80 10 95 3e 7b 43 91 be
       0.35863072 -0.03721442 0.2911415 -0.28371796
000080 7b 50 d3 3d ec 5c f7 3d 39 46 ae 3c d5 da 90 be
       0.10318085 0.1207827 0.02127372 -0.28291956
000090 ab df 42 3e 74 35 8c be d4 4e 06 be cd 6a a3 be
       0.19030635 -0.27384531 -0.13116008 -0.3191742
0000a0 63 47 70 be 90 b9 c3 be 39 02 93 3e a7 91 b0 3d
       -0.23464732 -0.3822751 0.28712633 0.08621531
0000b0 dc 94 93 be d1 15 2e be c8 14 8b bd 8c b6 f3 3e
       -0.28824508 -0.1700051 -0.06791073 0.4760021
0000c0 3d f7 dd 3e bf ed a2 3d 4e 79 16 be 85 a3 b2 3e
       0.4335269 0.07955503 -0.14694712 0.3489038
0000d0 18 c7 90 bb 4e dd b1 3e 3d 90 8a 3e cd fc 3d 3f
       -0.004418265 0.34739155 0.2706317 0.7421387
0000e0 0f 0d 4a be 79 5a af bd 43 3c b9 3e 32 8d 22 be
       -0.19731544 -0.08562178 0.3617879 -0.15874174
0000f0 19 95 99 be b0 6f d9 be f9 0f 1b 3e 3d 8b 4d be
       -0.29996565 -0.42468023 0.15142812 -0.20072646
000100 02 fe c6 3d 51 eb 1e be 02 4d 0c 3e 83 a6 d3 be
       0.09716417 -0.15519454 0.13701251 -0.41337976
000110 25 a5 00 be 57 5d af be 10 55 c3 3c 0a d0 e9 3d
       -0.12562998 -0.342509 0.023844272 0.114166334
000120 aa 50 b9 3e 0b ed 91 bd fb e5 fa bd f3 03 c2 be
       0.36194354 -0.071252905 -0.122508965 -0.37893638
000130 e7 90 46 bc 4a 71 f3 3c a3 3f 9d be bd c6 3e 3e
       -0.012119508 0.029717106 -0.30712613 0.186305
000140 90 0d bb bc 29 59 d3 be 87 65 9a 3d 62 3a 92 3e
       -0.022833616 -0.4127896 0.07538896 0.28560168
000150 19 42 95 be af bf dc 3d 7d 07 6f 3e 2c 22 85 3e
       -0.2915199 0.10778748 0.233427 0.26002634
000160 23 d0 6e 3e ab 7d 4e 3e 20 ae 20 be 18 cd db 3d
       0.23321585 0.20165126 -0.15691423 0.10732478
000170 4c c5 a7 3e 20 3e 48 3e 7e ce 8e 3e c8 fa 53 3e
       0.32767713 0.19554949 0.27891916 0.20701134
000180 7c aa b2 3d a9 72 0b be e2 ca a5 be 94 1a c5 bd
       0.087239236 -0.13617958 -0.3238135 -0.0962421
000190 b2 51 8b 3e 9c 08 4b be 75 84 3e be a0 70 09 3e
       0.27210766 -0.19827503 -0.18605216 0.1342187
0001a0 70 d5 82 bc b9 a5 91 be 26 c8 14 be 20 42 a6 be
       -0.015970916 -0.2844675 -0.14529476 -0.32472324
0001b0 c8 64 2b bd e4 2a b1 3d 82 bd 9d 3e b2 69 7a be
       -0.04184416 0.08650759 0.30808645 -0.24454382
0001c0 00 7e 4d bd 00 b9 3f 3c eb fc 21 be 26 6d f4 bd
       -0.05016899 0.011701822 -0.15819137 -0.11934881
0001d0 d8 f0 64 3e cc 0d b0 be 60 31 0f 3e 97 4e b1 be
       0.223575 -0.34385526 0.13983679 -0.34630272
0001e0 0a 4e 7b 3e 17 f0 e0 3d 0f c9 52 be 3a 70 63 be
       0.24541488 0.109832935 -0.2058451 -0.2221078
0001f0 4a 3e c8 3d 11 38 a5 3a c2 1b 70 3e fd 7b 78 be
       0.09777506 0.001260521 0.23448089 -0.24266048
000200 88 69 96 3e 6b 4a 35 3e 4c 4e 04 be 9f 7d dc ba
       0.2937739 0.1770417 -0.12920493 -0.0016822106
000210 77 2e 56 3d 64 91 1e be 05 02 74 bd e5 79 62 3e
       0.052290406 -0.1548515 -0.05957224 0.22116812
000220 4a 62 b8 3e 1e d7 9e bf be 65 e4 bb 63 0a 9a bd
       0.3601249 -1.2409399 -0.0069701364 -0.07521512
000230 00 eb 7d 3e 64 e2 65 3e ae c6 3a bf 72 38 ad be
       0.24796677 0.22449642 -0.7295941 -0.33832127
000240 c7 40 5a 3e 26 d8 6c 3e ac d3 69 be cf 0a 1a 3e
       0.21313773 0.23129329 -0.22834653 0.15043186
000250 5a 66 84 3e f0 88 e2 3d 15 d6 89 be eb 58 ca 3d
       0.25859338 0.11061275 -0.26921144 0.09880241
000260 35 47 a5 be a5 d0 b3 bd 17 9c 9d 3c 4d 86 ef bc
       -0.3228089 -0.0878003 0.019239469 -0.029238844
000270 ff 36 ba 3d d6 05 b4 bd 95 24 5d be 53 f2 35 3c
       0.09092521 -0.087901756 -0.21595986 0.011105138
000280 5e 39 6e be c7 2f 35 be 33 17 81 3d 2c d8 9d 3e
       -0.23264071 -0.17694007 0.06303253 0.3082899
000290 08 2f b6 bd e6 57 7d 3e 4c 44 36 be 12 17 5c be
       -0.08895689 0.24740562 -0.1779949 -0.21493176
0002a0 b8 70 69 3e 0c da a2 be c0 97 ac be 86 d5 73 3e
       0.22796905 -0.31806982 -0.33709526 0.23811921
0002b0 b0 39 02 bd 3c 9c 6c 3e be 37 ae 3d 5c ce 39 3e
       -0.031793296 0.23106474 0.08506726 0.18145126
0002c0 4e 8e 04 3e f9 26 3c 3e d0 8b b1 3e c8 9c 93 3e
       0.1294491 0.18374242 0.3467698 0.28830552
0002d0 18 f5 18 3e cc 32 98 bd 7a ea 27 be d5 07 87 bd
       0.14937246 -0.07431564 -0.1639804 -0.06593291
0002e0 f3 44 10 bd 69 b4 92 be e4 ee 03 3d 58 03 7c 3e
       -0.035222005 -0.28653267 0.032210246 0.2461065
0002f0 8c 39 b7 bd 65 f0 6a bc 3e 85 90 be 86 c2 3f be
       -0.08946523 -0.014339541 -0.28226656 -0.18726549
000300 e0 91 b1 bc 91 c2 aa bd e0 97 f2 bc 30 2d ae be
       -0.021676004 -0.08337892 -0.029613435 -0.3401885
000310 85 33 6b be 9e a3 3f 3e b3 1a bc 3d 3e 68 b5 be
       -0.22968872 0.18714759 0.0918478 -0.35431093
000320 80 e5 5a 3c ac ba 91 3e 10 a6 a9 bd 72 cd 7a be
       0.013360381 0.28462732 -0.08283627 -0.24492434
000330 14 ad 20 3e 89 6e 2c be 52 fc c9 be 88 aa fa 3d
       0.15691024 -0.16839041 -0.39450318 0.122395575
000340 a0 93 96 3d 96 d9 9e 3d 99 fc a7 be 7d b8 e8 3e
       0.07352376 0.07756345 -0.32809904 0.45453253
000350 d6 fd c3 be ef da 0b be c8 af 7f 3e ac 7e 20 be
       -0.382796 -0.13657735 0.24969399 -0.15673321
000360 33 c0 99 3e 7c 67 39 3c d5 39 8a be e0 41 40 be
       0.3002945 0.0113161765 -0.26997247 -0.1877513
000370 5c 24 f2 bd 60 18 35 3e 4c c6 cb 3d af 94 8c bd
       -0.11823341 0.1768508 0.099499315 -0.06864297
000380 d0 5d 2c 3d 76 8a b4 be 9c db bf bd d2 e8 77 3d
       0.042081654 -0.35261887 -0.09368059 0.06052477
000390 d3 4f 11 be 51 db 92 be c3 e0 83 be 53 d8 fa 3d
       -0.14190607 -0.2868295 -0.25757417 0.12248292
0003a0 98 d9 42 be f3 88 08 3e a8 1d 16 3e a3 4e 66 be
       -0.19028318 0.13333492 0.1465975 -0.22490935
0003b0 5b 28 48 3e 90 e6 87 3e f8 d6 56 3d 30 a0 0f bd
       0.19546644 0.26543093 0.052451104 -0.035064876
0003c0 77 e0 a8 be 60 73 c1 bc bb 6f da bd 2b 13 ce 3d
       -0.32983753 -0.023614585 -0.10665842 0.1006225
0003d0 c9 67 ab 3e 51 9e 87 bd 48 2f 44 bd 8a 10 a9 3e
       0.3347762 -0.06621993 -0.047896653 0.3302043
0003e0 e8 33 be be 88 a8 bb 3d e6 f5 7c be d8 e1 5a 3e
       -0.37148976 0.09163004 -0.24703178 0.21375215
0003f0 5f db 82 be 71 a6 af be 4b d8 0d 3e 51 9f 81 3e
       -0.25557992 -0.34306672 0.1385204 0.2531686

sequential_1/dense_1_2/Add/ReadVariableOp f4 [15]
000000 e2 22 7f 3e b7 18 33 bf 18 79 c1 bd 00 00 00 00
       0.2491565 -0.69959587 -0.09446925 0.0
000010 00 82 3a bf e3 b4 38 3d 13 45 f1 bc 76 48 44 bd
       -0.72854614 0.045094382 -0.029451882 -0.047920667
000020 c5 4c 19 3e 00 00 00 00 00 00 00 00 d1 5b 08 bf
       0.14970692 0.0 0.0 -0.532651
000030 00 00 00 00 bd ed aa 39 3a 9c 34 3f
       0.0 0.00032602056 0.7055088

sequential_1/dense_1/Add/ReadVariableOp f4 [30]
000000 d9 1b b6 bf 70 4a 26 3f ad 34 67 bd ad 79 42 be
       -1.4227248 0.6495733 -0.05644672 -0.18991728
000010 19 dc 7b 3e 06 e1 8a 3e 9f 67 a7 bd a3 53 07 bc
       0.2459568 0.27124804 -0.08174061 -0.008259687
000020 73 ee 8d b9 58 93 bf bd 00 00 00 00 84 c7 99 3f
       -0.00027071274 -0.093542755 0.0 1.2014012
000030 9d 8d 8f bd 74 dc 0f bd f1 25 59 be 75 69 22 3e
       -0.070094325 -0.03512235 -0.2120588 0.15860541
000040 92 ce 2e be 3c 47 c4 3f 72 5d 1b bf 34 56 bd 3e
       -0.17070988 1.5334239 -0.6068946 0.3697983
000050 00 00 00 00 a6 c9 d3 be 16 17 45 3f 74 99 83 bd
       0.0 -0.41364783 0.7698835 -0.06425753
000060 b7 2d 7f bd c5 fc 13 bf 06 ce 47 be 5a 66 f5 be
       -0.062299456 -0.5780757 -0.19512185 -0.4792965
000070 e4 84 16 be 04 aa 09 3f
       -0.14699131 0.5377505

sequential_1/dense_1/MatMul f4 [30, 3]
000000 0e fe 31 3e 08 c1 a0 3e 44 5a 9f 3e 6b 3a 9c 3e
       0.1738207 0.3139727 0.31123555 0.3051332
000010 14 16 02 be b2 fa 65 bc 7d 41 25 3e 6e 71 ce 3d
       -0.12703735 -0.014036821 0.16138263 0.10080229
000020 45 6a 3c 3e df ce 90 be d3 93 05 bb 03 6a 2e bd
       0.18399914 -0.2828283 -0.00203823 -0.04258157
000030 44 dc ad 3e 61 9d 0e be 69 3f 55 3e ce 39 fc bc
       0.33957112 -0.13927223 0.2082497 -0.030789282
000040 b1 b4 aa bc a6 65 1a 3e ae 24 e0 bd 90 06 3c be
       -0.020838114 0.15077838 -0.10944496 -0.18361878
000050 5b 76 a3 be 5a 1b 25 3e bb a6 0d be 14 41 cf 3d
       -0.31926236 0.16123715 -0.13833134 0.101198345
000060 9d 37 9e be 87 95 cb 3d f2 59 5a 3e 90 20 82 bd
       -0.30901805 0.099406295 0.21323374 -0.06353867
000070 16 79 3d ba de 2e e8 bd e6 3e 31 be 98 09 16 3d
       -0.0007227821 -0.11337064 -0.1730915 0.036630243
000080 a0 d1 15 bd 46 95 bb 3e 67 0e 87 3e 60 00 3e be
       -0.036576867 0.36637324 0.26378176 -0.1855483
000090 14 98 76 be 12 24 b6 39 a0 74 d7 bd 1f f1 f8 3e
       -0.2408145 0.0003474062 -0.10520291 0.4862146
0000a0 7d be 93 be 23 12 ad be 97 6a 04 be a4 63 ab 3e
       -0.2885627 -0.338029 -0.12931286 0.33474457
0000b0 6d 6a 17 be 96 40 38 3e 04 f8 33 be 12 42 07 3e
       -0.14786692 0.17993388 -0.17575079 0.13208798
0000c0 1b d3 84 be e3 a0 28 be 5f 42 e6 3d ea 0c 8e 3e
       -0.2594231 -0.16467623 0.11243128 0.27744228
0000d0 39 da e3 bd 44 28 b8 bd 2e c3 0b bf f2 8d 4a 3e
       -0.11125607 -0.08992055 -0.54594696 0.1978071
0000e0 7d ce 8e 3d e0 3d b2 bd 40 40 89 3e ff 1e 9d 3e
       0.06972978 -0.08703208 0.2680683 0.3068771
0000f0 09 1a bf be 10 14 f0 3d 6f 48 be be bb 73 04 bf
       -0.3732455 0.117225766 -0.37164637 -0.5173909
000100 9c ce c8 3c 0d fe 08 3e 1f cd 81 be 47 e0 ed 3d
       0.024512582 0.13378163 -0.25351807 0.11615043
000110 63 3d fe c0 e1 24 8b bd c6 6a f5 bd fb ce b1 bd
       -7.9449935 -0.067941435 -0.11983256 -0.086820565
000120 88 e3 cb be cf d1 0d be ec f8 a7 3d d5 9d 06 bf
       -0.3982203 -0.13849567 0.08201775 -0.5258458
000130 4d e3 82 3e 19 24 6e 3d 4d 0f ac bd 81 16 61 be
       0.25564042 0.058139894 -0.08401356 -0.21981241
000140 3c dc 01 3e ee 2b b5 bd c7 e7 a2 3d 00 25 24 bb
       0.12681669 -0.088462695 0.07954364 -0.0025046468
000150 e3 c1 0b be c4 ec 15 be 6d c5 26 3e a9 fe b0 3e
       -0.1364818 -0.146411 0.1628625 0.3456929
000160 79 0a 72 be 44 cd 50 3e
       -0.23636808 0.20390803
