develop_model_for_uncalibrated_data/model.tflite (tflite, 4336 bytes, 5 tensors)

arith.constant f4 [1, 15]
000000 8a 2a 3f 3e cc 82 dd 3d d4 57 c0 3e 74 cc 0f be
       0.18668571 0.10815963 0.37567008 -0.14042836
000010 0b 69 4a 3e 52 ac 7b be 34 93 61 bc c3 da 92 be
       0.19766633 -0.24577454 -0.013768006 -0.28682527
000020 9c 7d bb 3e d4 28 66 3d ac 87 c8 bd 8a 97 b7 3c
       0.3661927 0.05619128 -0.09791502 0.022411127
000030 31 0a 13 3d 14 00 b0 be b3 3a 06 3f
       0.03589839 -0.3437506 0.5243332

arith.constant1 f4 [15, 30]
000000 83 62 8e be 3f fd 5e 3e 1d 8b 8d 3e 40 51 3b be
       -0.27809533 0.21776293 0.27645198 -0.18292713
000010 59 18 c8 3d e7 4c 59 3e 75 2b 10 3e d3 c1 af be
       0.09770269 0.21220742 0.14079078 -0.34327564
000020 ed 88 f9 3d 98 af a5 be 67 85 c0 be fd 02 7a 3c
       0.1218432 -0.3236053 -0.37601778 0.0152595015
000030 5b 85 06 be 63 c2 6f be eb f5 db bd a8 8c 34 be
       -0.13136809 -0.23413996 -0.107402645 -0.17631781
000040 b3 20 01 be a1 56 e7 bd c8 71 84 3d 48 a8 bb 3d
       -0.1261013 -0.1129582 0.064670146 0.091629565
000050 2a 41 63 be 6d 9e 9d be 11 73 35 3e d9 59 83 3e
       -0.22192827 -0.30784932 0.17719676 0.25654486
000060 8f 4e 65 be 32 31 31 be 3b 00 2b 3e 50 d9 88 3e
       -0.22393249 -0.17303923 0.16699307 0.26728296
000070 ab f5 2c be bc 4b 00 be c6 9f 03 3d a9 4f 47 3b
       -0.1689059 -0.1252889 0.032134794 0.0030412471
000080 db aa 6d 3d 15 df f3 bc dc e6 ab 3d 71 84 bf be
       0.05802427 -0.02976946 0.08393642 -0.37405732
000090 e9 fb aa 3e f0 41 e7 be 71 15 4b be 52 19 21 3e
       0.33395317 -0.45167494 -0.19832398 0.15732315
0000a0 05 09 bb be 00 94 8b be c5 b1 96 3e 33 d9 cf be
       -0.3653032 -0.27261353 0.29432502 -0.40595397
0000b0 3f db 05 3d 1f ce 5f 3e 6f 24 0b be ab f2 1b be
       0.032679792 0.21855973 -0.13588117 -0.15229289
0000c0 4e 0c 11 bf d0 48 b7 3e 58 2b 92 3c f3 a8 97 3d
       -0.566594 0.3579774 0.017842934 0.074052714
0000d0 55 11 8b 3e d7 00 20 be d9 77 bd bb ad 47 47 3b
       0.2716166 -0.1562532 -0.005782109 0.0030407712
0000e0 bf 9d 98 3e d2 34 8d 3e a7 ff 07 3f 01 a5 09 3d
       0.2980785 0.2757936 0.5312447 0.033604626
0000f0 cc 18 93 be 00 a5 60 be 85 f2 14 be 6f de 1b 3e
       -0.28729856 -0.21937943 -0.14545639 0.1522157
000100 ca 19 cf 3d 50 f0 91 3e c9 bd 27 be d9 85 aa bc
       0.10112341 0.28503656 -0.16380991 -0.020815777
000110 c7 a0 37 be 76 06 8a be 08 f1 9d be 1b f1 39 be
       -0.17932425 -0.26958054 -0.30847955 -0.1815838
000120 71 87 03 be 69 4c 9a bd 00 22 41 3d 8a 57 d0 bd
       -0.12844636 -0.07534105 0.047151566 -0.10172947
000130 e0 cc 0b bc 25 b3 77 3e a8 9f a2 3e 30 32 78 be
       -0.008532733 0.24189432 0.31762433 -0.24237895
000140 57 c9 79 3e 10 10 c1 be 80 44 36 3c 74 7d 43 3e
       0.24393211 -0.37707567 0.01112473 0.19090825
000150 09 91 9f 3e 85 f3 9f be 49 ee d0 be 50 0f 03 3e
       0.3116534 -0.31240478 -0.40806797 0.1279881
000160 3e 8e de be cc 6a 12 3e 0c 47 48 3e e7 98 a0 3d
       -0.43467897 0.14298552 0.19558352 0.07841664
000170 66 28 b9 3e af fd 80 be c0 57 0a 3e 91 10 b5 3e
       0.36163634 -0.25193545 0.13510036 0.35364202
000180 41 d8 88 be 3a f7 da 3e a5 3c 0f be e4 6b 39 3d
       -0.2672749 0.42766744 -0.13987978 0.04526891
000190 b8 4e ce bd 80 11 75 3d d8 4b 55 be 94 2f 39 3e
       -0.10073608 0.059831142 -0.20829713 0.18084556
0001a0 77 bf 07 be 86 97 e2 3d 40 38 2a bd a7 c3 68 3b
       -0.13256632 0.11064057 -0.04155755 0.0035517009
0001b0 05 e8 89 be 18 f7 5c 3e 52 5b b9 3e d5 d5 4b 3e
       -0.2693483 0.21578634 0.36202484 0.19905789
0001c0 6c c4 2b be 30 5f d5 bd 7a 64 a2 be da 06 c1 3e
       -0.16774148 -0.10418546 -0.31717283 0.3770054
0001d0 4b 85 3f 3e d4 dd 9b 3e c8 9a 5e bf da 6c 3d be
       0.18703191 0.3044268 -0.8695493 -0.18498555
0001e0 b3 06 69 be a8 c7 62 be aa 10 32 3e 9b ff 07 bf
       -0.22756462 -0.22146475 0.1738917 -0.531244
0001f0 3d fa 52 bd cd cd fb 3d 12 0c 7e 3d 8e 3a 70 3d
       -0.051508177 0.12295113 0.06202323 0.058649592
000200 35 0d 2e 3e 03 8c 74 3e 7a 1f fd 3d 7e fa 63 3c
       0.16997226 0.23881535 0.12359519 0.013914702
000210 a2 d7 15 3d fe 96 fa 3e 9b 07 aa bd e5 79 e6 bd
       0.036582597 0.48943323 -0.08302232 -0.11253718
000220 55 fe 48 3e 07 34 17 3e 85 bc 47 3e a8 ea b1 3e
       0.1962827 0.1476594 0.19505508 0.3474934
000230 ee 1d 9f 3b 46 fd 22 3e c8 e3 3a 3d 9f f5 8a bd
       0.004855863 0.15916929 0.045627385 -0.0678513
000240 f0 d9 98 bc 6a 48 f6 3d 96 6f c6 be 58 e2 4f 3e
       -0.018658608 0.12025531 -0.38757008 0.20301187
000250 b6 58 e3 3d f6 50 dd bd 6c b2 19 bf 05 f1 f4 3d
       0.11100905 -0.10806458 -0.60037875 0.11960033
000260 6b 2c 25 bf df 34 07 3e c5 d7 b3 3e 5a 2b 9d bf
       -0.645209 0.13203762 0.35125557 -1.2278855
000270 c7 0b 8c 3e 47 92 0a bf c4 1c 21 3d fd a2 14 3e
       0.27352735 -0.5412945 0.039334074 0.145153
000280 cb f0 b3 be 2d ae 79 3e 65 d1 03 3e 59 6f 45 3e
       -0.35144648 0.24382849 0.12872846 0.19280757
000290 31 cf b8 3d 04 23 94 3e c2 e6 a4 bd 5c 1e d5 be
       0.090238936 0.28932965 -0.08051826 -0.41624725
0002a0 f3 4c 52 3e 98 df 2a bd 2b b9 6e be c1 f1 4a 3e
       0.20537166 -0.041717142 -0.23312823 0.19818784
0002b0 ee f6 2a 3e 0b 11 1b bf 56 dc 37 be 40 aa 6a 3e
       0.16695759 -0.6057288 -0.17955145 0.22916508
0002c0 e1 d0 90 be c0 bc a6 bc 1d 0a a9 3f 92 9a f3 3d
       -0.28284362 -0.020353675 1.3206211 0.11894716
0002d0 4c 95 6b 3e 12 8c 49 bd 7d 18 7d be 06 d9 90 3e
       0.23006171 -0.049205847 -0.24716373 0.28290576
0002e0 10 94 37 be 36 1d 93 be e3 52 95 3d db eb 1f 3e
       -0.17927575 -0.28733224 0.072912 0.15617315
0002f0 31 bb 03 3e a0 74 55 3d 04 68 a7 be a5 f8 9d bd
       0.12864377 0.052113175 -0.32696545 -0.07713441
000300 f3 1f 24 3d b3 e8 ca be 1c 87 f6 3d 96 c3 88 be
       0.04006953 -0.3963066 0.12037489 -0.2671172
000310 7c d4 f2 b9 51 61 ef 3d c0 e5 74 3e 48 b0 95 3e
       -0.0004631615 0.116884835 0.23915768 0.29236054
000320 b6 47 7d be b0 96 86 3c 5e e6 5c bd 04 d7 9c 3e
       -0.24734387 0.016429275 -0.053930633 0.30632794
000330 0d 07 7d 3e c5 89 d1 bc b4 b7 44 be d8 d8 ae 3e
       0.24709721 -0.025578389 -0.19210702 0.34149814
000340 e1 84 38 be 13 b5 59 be 1c dd 58 3e 80 bb 51 3d
       -0.1801944 -0.2126048 0.21178097 0.051204205
000350 f4 de 2a 3e 58 bd 1f bd 7c 43 a4 bc c4 e7 9b 3d
       0.16686612 -0.03899893 -0.02005171 0.07612565
000360 1e f5 96 3d a0 5e a9 bc 01 d2 e2 bd 8b aa 5a bd
       0.07370971 -0.020675004 -0.11075211 -0.0533853
000370 37 94 9b be 46 6e 89 3e 06 76 59 be 36 a5 bd be
       -0.30386516 0.26841944 -0.21236429 -0.37040108
000380 16 2a 2e 3e 37 9a c0 3d 23 a6 88 be f2 2a b4 bc
       0.17008242 0.09404414 -0.26689252 -0.021993134
000390 0a 97 5e be 46 14 8c be 6c b8 58 3e fa 55 ec bd
       -0.21737304 -0.27359217 0.21164101 -0.11539836
0003a0 89 9a 0e 3d 8f 8d 39 be f6 d9 c0 ba ac 3d b9 3e
       0.034815345 -0.18120407 -0.0014713395 0.36179864
0003b0 66 5c 7d 3c 96 52 9c 3e b3 67 9c 3d 96 f4 25 3d
       0.015463924 0.30531758 0.076369666 0.04051646
0003c0 a8 26 68 be e9 a5 26 be 49 65 1e bd e2 0b 59 bd
       -0.22670996 -0.16274227 -0.03867081 -0.052989848
0003d0 b7 34 a9 3e 20 f3 56 be e7 84 40 3e fa 0b 2d bd
       0.3304803 -0.20991182 0.18800698 -0.04224775
0003e0 c8 3b 2a be b5 6c 66 3e 12 ba 2f 3d f5 7f 58 3c
       -0.16624367 0.22502406 0.04290206 0.013214101
0003f0 9d 51 80 3e 28 18 f4 3c f7 7a ab 3e 87 64 27 bd
       0.25062266 0.029796675 0.33492252 -0.040867355

sequential_1/dense_1_2/Add/ReadVariableOp f4 [15]
000000 9c 0b 78 bd 78 21 00 40 ef 4a 32 bd 00 af 5c c0
       -0.060557947 2.0020428 -0.043528493 -3.4481812
000010 a8 a1 28 3f 03 1f 29 40 78 72 8b bf de 58 ee 3a
       0.6587167 2.6425178 -1.0894308 0.0018184443
000020 58 9a af 3f 53 33 a8 bc 2e 6e 31 40 7e 4a e9 3e
       1.3718977 -0.020532286 2.7723498 0.45564646
000030 79 9a 57 3e f5 24 c8 bf 00 00 00 00
       0.2105502 -1.5636278 0.0

sequential_1/dense_1/Add/ReadVariableOp f4 [30]
000000 02 69 61 c0 05 69 4b be ac 20 1a c0 bf d0 59 bf
       -3.5220342 -0.1986428 -2.4082441 -0.85084146
000010 4d 96 12 40 f7 4a 6d c0 62 78 5d 40 13 e3 66 c0
       2.2904236 -3.7077005 3.4604726 -3.6076095
000020 7d 00 2b 40 37 7d 5c c0 32 fc 54 c0 19 8e 2a 40
       2.6719048 -3.4451425 -3.3278928 2.664923
000030 9a 1f f2 3f e5 f4 28 40 b3 51 56 c0 da 98 13 40
       1.8915894 2.6399472 -3.3487365 2.3062043
000040 08 91 5d c0 95 01 4f c0 c6 e3 5e 40 00 00 00 00
       -3.461977 -3.2344716 3.4826522 0.0
000050 e4 19 2a c0 da c3 87 3f f6 ff 59 c0 5e 92 61 c0
       -2.6578302 1.0606644 -3.4062476 -3.5245585
000060 d3 c6 48 40 9c 55 be bf 4c f1 8d bf 00 00 00 00
       3.1371353 -1.4869876 -1.1089263 0.0
000070 d6 6b e3 3f 1d 2c 5f 40
       1.7767284 3.4870675

sequential_1/dense_1/MatMul f4 [30, 2]
000000 9a a6 02 3d 36 05 45 bd 8e 09 7c 3d 31 53 23 3e
       0.031897165 -0.048100673 0.06153255 0.15949704
000010 86 e3 79 3d 86 f6 93 bd 87 14 a7 3e d9 05 9d 3e
       0.061008 -0.07224755 0.3263285 0.30668524
000020 2d e1 88 3e 8e db d7 bc ae 0a 14 3d b8 6e 41 3b
       0.26734295 -0.026349809 0.036142997 0.0029515456
000030 14 25 bf 3d 78 f7 84 be e8 7c 9d 3c 5e 0a 81 bc
       0.09333244 -0.25970054 0.019224599 -0.015752014
000040 58 98 f3 3d 37 31 b1 3d c2 cd 54 be ad bc 8e 3e
       0.11894292 0.08651965 -0.20781615 0.27878323
000050 f3 56 74 3e d3 28 4e 3e 9e c5 dd be 1e 80 92 3e
       0.23861293 0.2013276 -0.43314832 0.2861337
000060 d9 64 78 3e dd 58 cd 3d aa f5 96 be 51 ce 15 3e
       0.2425722 0.10026715 -0.29484302 0.14629485
000070 45 96 44 be fb 44 3b 3e a7 a6 58 3d 83 8c 5f 3e
       -0.19197948 0.18288033 0.052893307 0.21830945
000080 b0 bb b5 be 91 ff 55 3e 41 9c 60 be fa 66 1b 3e
       -0.35494757 0.20898272 -0.21934606 0.15176001
000090 2e de cc bd b2 04 a7 3d 1e e6 9e be c8 36 72 bd
       -0.10003315 0.081551924 -0.3103494 -0.059134275
0000a0 44 96 a7 3e 08 4b fb bd 69 4d 63 bd 64 4f e5 bb
       0.3273183 -0.122701705 -0.055493746 -0.0069979895
0000b0 79 b8 8b be 73 02 10 3e 57 12 a3 3d af dc 51 be
       -0.2728918 0.14063434 0.079624824 -0.2049434
0000c0 e7 77 67 be 96 1e 45 3e b6 20 91 3b 11 dd 1b 3e
       -0.22604333 0.19249949 0.0044289483 0.15221049
0000d0 e1 be 38 3e 3a bb 98 3e b1 cc 89 be e6 d6 a1 be
       0.18041565 0.29830343 -0.2691398 -0.31609267
0000e0 0b 59 23 3c 86 e9 90 c0 cc c9 6e 3d 82 e7 2d be
       0.00996996 -4.5285063 0.058297917 -0.16982844
